model_1.pth (torch, 138226 bytes, 12 tensors)

online.layer1.weight f4 [128, 60]
0	0xbcdbb2c8	-0.026818648
1	0xbc9552f4	-0.018228032
2	0xbdfdff7a	-0.12402244
3	0xbdb24adc	-0.087056845
4	0xbca3ef44	-0.020011552
5	0xbd8a12e5	-0.06741885
6	0xbc11a820	-0.008890182
7	0xc0bd8413	-5.9223723
8	0x3f86a7d5	1.0519968
9	0x3d8278d8	0.06370705
10	0x3d84bd08	0.06481367
11	0x3d31e3b4	0.043430045
12	0xbced5474	-0.028970934
13	0xbe0115e0	-0.12606001
14	0xbdb9ad47	-0.09066253
15	0x3d5802f8	0.052737206
16	0xbb943e90	-0.0045240596
17	0x3c2a1fe0	0.010383576
18	0xbd41222e	-0.047151737
19	0xbd8fa45f	-0.07013773
20	0xbd1482b4	-0.03625746
21	0xbdc12600	-0.09431076
22	0x3dc235fa	0.094829515
23	0xbd6d1cb8	-0.057888716
24	0x3d285c4c	0.041103646
25	0x3d2fe1f0	0.04294008
26	0xbdb24c62	-0.08705975
27	0x3dfc5b42	0.123220935
28	0xbd2f4788	-0.042792827
29	0x3d264af0	0.04059881
30	0xbdd53d4c	-0.10412082
31	0xbcbad514	-0.022806682
32	0x3d8becaa	0.068322495
33	0x3dc07112	0.093965665
34	0xbdc32a04	-0.09529498
35	0xbd50db64	-0.050990477
36	0x3dcbb2be	0.09946202
37	0xbdaaec7b	-0.08345886
38	0xbd5769fe	-0.052591316
39	0xbcdd517c	-0.027016394
40	0x3d891296	0.06692998
41	0xbdd7bbc6	-0.10533862
42	0x3d92b46e	0.071633205
43	0x3e0281b3	0.12744789
44	0xbc6fd180	-0.014637351
45	0x3df06616	0.11738221
46	0x3d096acc	0.033549115
47	0xbda41238	-0.080112875
48	0x3c7470a0	0.01491943
49	0x3d8db454	0.069191605
50	0xbde1410d	-0.109987356
51	0x3bcb0340	0.006195456
52	0x3c9375a8	0.018000439
53	0xbdcf478d	-0.10121069
54	0xbd88f9cc	-0.0668827
55	0xbd225b80	-0.039638042
56	0x3a0df600	0.000541538
57	0x3dbdc746	0.09266524
58	0xbde9e3e3	-0.11420419
59	0xc08f2240	-4.472931
60	0x41457b0d	12.342542
61	0x3dd9a2b0	0.10626733
62	0xc15ea858	-13.9161
63	0x3dade262	0.08490445
64	0x3d4c89ac	0.04993598
65	0xbced933c	-0.02900087
66	0x3d2026f8	0.039099663
67	0xbfc0f8a0	-1.5075874
68	0x419056c2	18.042362
69	0x3b8484a0	0.0040441304
70	0x3a95fe80	0.0011443645
71	0xbda6f974	-0.08153048
72	0xbd61564c	-0.05501394
73	0xbdde27f4	-0.10847464
74	0x3dcb71ba	0.09933801
75	0x3ddeb468	0.108742535
76	0x3df0b862	0.11753918
77	0xbda82fb6	-0.08212225
78	0x3ddd6216	0.10809724
79	0x3c793630	0.015210673
80	0x3d2784d4	0.04089816
81	0xbd34931c	-0.044085607
82	0x3dd14de6	0.10219936
83	0xbd84b3f2	-0.06479634
84	0x3dc3d872	0.09562768
85	0x3c222540	0.009896576
86	0x3d0fd404	0.035114303
87	0xba580400	-0.0008240342
88	0x3cbd20b0	0.023086876
89	0xbda75d9f	-0.08172154
90	0x3b7d8940	0.0038686544
91	0x3d3531b8	0.04423687
92	0x3da3bee6	0.07995395
93	0x3dee6ff6	0.116424486
94	0x3df85422	0.12125422
95	0x3cf86028	0.030319288
96	0x3da547fc	0.080703706
97	0xbdfad934	-0.122484595
98	0xbd94339a	-0.07236405
99	0x3dee1da2	0.11626746
100	0xbde9d8a6	-0.114182755
101	0xbd3bb4b8	-0.045826644
102	0x3dd47730	0.10374296
103	0x3da276ea	0.07932837
104	0x3df6b13a	0.12045522
105	0x3d57e01c	0.05270396
106	0xbd58d9a2	-0.052941926
107	0xbcdb25f0	-0.026751488
108	0xbc7bee18	-0.01537659
109	0xbd5391ee	-0.05165284
110	0xbd6b22e8	-0.057406336
111	0xbd8c8251	-0.068607934
112	0x3dc4e470	0.096138835
113	0x3c845520	0.016153872
114	0xbd4c3634	-0.04985638
115	0x3d85099e	0.06495975
116	0xbc0e9228	-0.008701839
117	0xbce11390	-0.027475148
118	0x3ddcfd82	0.1079054
119	0xc20fbc3a	-35.933815
120	0x3dae5768	0.08512765
121	0x3e025e6f	0.12731336
122	0xbc6d6448	-0.014489241
123	0xbd8d4592	-0.06898035
124	0xbc1d5de0	-0.009604901
125	0xbd9a7786	-0.075423285
126	0x3df31574	0.11869326
127	0x3dc68002	0.09692384
128	0xc03d2cf4	-2.9558687
129	0x3e009a1f	0.12558793
130	0x3de2581e	0.11051963
131	0x3de4b588	0.11167437
132	0x3dfce9be	0.1234927
133	0xbc89f1dc	-0.01683896
134	0x3dee6792	0.11640848
135	0x3ddbf8c2	0.10740806
136	0x3c34e830	0.011041686
137	0xbd69f7c0	-0.05712104
138	0x3dcde740	0.10053873
139	0xbdb8c2b0	-0.09021509
140	0xbc0f7d00	-0.00875783
141	0xba9ab000	-0.001180172
142	0xbc246408	-0.010033615
143	0xbdcac8ba	-0.09901567
144	0x3d90c5fe	0.07069014
145	0x3dcfd53e	0.101480946
146	0x3dbfe82c	0.09370455
147	0xbdcd4b12	-0.10024084
148	0x3da951c4	0.08267549
149	0x3d8e27e6	0.06941204
150	0xbd60e734	-0.054907992
151	0x3d3e1c54	0.046413735
152	0x3dd83d90	0.10558617
153	0x3d1c2e8c	0.038130328
154	0xbde13b69	-0.1099766
155	0xbb07d780	-0.0020727813
156	0x3ded01d4	0.11572614
157	0xbdb0fe08	-0.086422026
158	0x3d4b00ac	0.049561188
159	0xbd633faa	-0.055480637
160	0xbdd17e5c	-0.10229179
161	0xbd105d64	-0.035245314
162	0xbd6461ee	-0.055757456
163	0x3df4e0c4	0.11956933
164	0x3de0a49a	0.10968895
165	0x3defedb4	0.1171526
166	0xbd3c964a	-0.046041764
167	0xbd1303d0	-0.035892308
168	0x3d8b3c9e	0.06798671
169	0xbdf5195b	-0.11967727
170	0x3d863a1e	0.06554054
171	0x3d95fba4	0.07323387
172	0x3c9c1e10	0.019057304
173	0x3dcfd94c	0.10148868
174	0xbdb450fe	-0.088045105
175	0xbdf2ab12	-0.11849035
176	0xbb0f6f00	-0.002188623
177	0xbdad2860	-0.084549665
178	0xbbeb5990	-0.0071823075
179	0xc03d9834	-2.9624147
180	0xc09bd7bf	-4.870086
181	0x3d1e5e20	0.038663983
182	0xc1177bbd	-9.46771
183	0xbd9e7da0	-0.07738805
184	0x3d38bed8	0.045103878
185	0x3d0568b4	0.032570556
186	0xbda81076	-0.08206265
187	0xc10f989c	-8.974758
188	0xc104d30d	-8.301526
189	0xbd53bb1c	-0.051692113
190	0x3de7810a	0.11303909
191	0x3dcae198	0.0990631
192	0xbd185f12	-0.03720004
193	0x3d7c3ce4	0.061581507
194	0xbcf99adc	-0.03046935
195	0x3d2b2390	0.041781962
196	0x3d906518	0.07050532
197	0x3d8d35dc	0.068950385
198	0x3d553308	0.05205062
199	0xbcb894a0	-0.022531807
200	0x3dc58dd8	0.09646195
201	0xbdce1bd2	-0.100639
202	0xbddde112	-0.108339444
203	0xbdda49cd	-0.10658608
204	0xbc4d6410	-0.012536064
205	0xbd7932cc	-0.06083946
206	0x3dba8ec6	0.09109263
207	0x3d5b9214	0.053606108
208	0x3bfd6ea0	0.007734135
209	0xbdbfc91e	-0.09364532
210	0xbd5575ba	-0.052114226
211	0x3ce72ef8	0.028220639
212	0x3d9202ec	0.071294636
213	0x3d679f5c	0.05654846
214	0xbdcea406	-0.10089879
215	0x3d7c7e40	0.06164384
216	0xbdec2924	-0.115312845
217	0x3da1ec2c	0.07906374
218	0xbe033e9e	-0.12816855
219	0xbcca05fc	-0.024661057
220	0xbaad2f00	-0.001321286
221	0xbdc2062a	-0.09473832
222	0xbce9062c	-0.028445326
223	0xbca2c588	-0.01986958
224	0xbc6dac20	-0.01450637
225	0x3b2b7080	0.0026159585
226	0x3cf27cc0	0.029600501
227	0xbd44f072	-0.04808087
228	0x3d57cb9c	0.05268441
229	0x3dfdc6f2	0.123914614
230	0xbd3668bc	-0.044533476
231	0x3ca2faf8	0.019895062
232	0xbd007d54	-0.031369522
233	0x3d951cb4	0.07280865
234	0xbd365ad4	-0.044520214
235	0x3e015091	0.1262839
236	0xbe01086c	-0.12600869
237	0x3c422630	0.011849925
238	0xbe008596	-0.12550959
239	0xc1a5fc33	-20.748144
240	0xbd461360	-0.04835832
241	0x3de51df4	0.11187354
242	0x3c518870	0.012788877
243	0x3c843ed8	0.016143247
244	0xbdd3b4e6	-0.10337238
245	0xbdbc05d9	-0.09180803
246	0xbda9ecc6	-0.08297114
247	0xbce81168	-0.028328612
248	0xc041714a	-3.0225396
249	0xbdfc1fd3	-0.123107575
250	0xbda94113	-0.08264365
251	0xbd449e1e	-0.048002355
252	0xbd4e9c8e	-0.05044227
253	0x3d4fd7d0	0.050742924
254	0x3caa89f8	0.020817742
255	0x3da0c97e	0.078509316

online.layer1.bias f4 [128]
0	0xc08c1ca3	-4.3784957
1	0xc21028d7	-36.039883
2	0xc045f8b2	-3.0933042
3	0xc1a56079	-20.672106
4	0xc04c2016	-3.1894584
5	0xc22169c9	-40.353306
6	0xc045002f	-3.0781362
7	0xc236ab7e	-45.667473
8	0xc176e1c8	-15.430122
9	0xc1f703d4	-30.87687
10	0xc03e107d	-2.9697564
11	0xbdc058bf	-0.09391927
12	0xc17cce01	-15.800294
13	0xc02b1f9d	-2.6738045
14	0x41a1552b	20.166586
15	0xc040d866	-3.013208
16	0xc1620967	-14.1272955
17	0xc216b123	-37.672985
18	0xc15f61c9	-13.961373
19	0xc03d7d1f	-2.9607618
20	0xc1768602	-15.407717
21	0xc1b92af6	-23.145977
22	0xc03d3057	-2.9560754
23	0xc1800802	-16.00391
24	0xc2381a63	-46.02577
25	0xc20f391f	-35.805782
26	0xc1c28372	-24.314182
27	0xc12b0118	-10.687767
28	0xc1a26450	-20.29898
29	0xc1bd29dd	-23.645441
30	0xc251d5b1	-52.458683
31	0xc0fdd3b0	-7.9320908
32	0xc17d531a	-15.832788
33	0xc03e05db	-2.9691074
34	0xc255de56	-53.467125
35	0x41b6b9b2	22.840672
36	0xc047361c	-3.1126776
37	0xc230e625	-44.22475
38	0xc04f8cda	-3.242972
39	0xc041aa0b	-3.0260036
40	0xc0475a3f	-3.1148832
41	0xc1be8dcf	-23.819242
42	0xc163dca9	-14.241372
43	0xc155c9fe	-13.3618145
44	0xc03bea0f	-2.9361608
45	0xc19628d5	-18.769938
46	0xc04b4a4b	-3.1764095
47	0xc00a205d	-2.1582253
48	0xc15e50a2	-13.894686
49	0x41b92494	23.14286
50	0xc17def05	-15.870854
51	0xc0dd5af5	-6.917353
52	0xc17d4926	-15.8303585
53	0xc21f6533	-39.848827
54	0x41c5f8a5	24.746408
55	0xc1a54c34	-20.662209
56	0xc2370aae	-45.76043
57	0x419f8678	19.940659
58	0xc12e5138	-10.894829
59	0xc045fcb8	-3.0935497
60	0xc041357d	-3.0188897
61	0xc17d241c	-15.821316
62	0xc1c1a271	-24.204317
63	0xc162ebf3	-14.182605
64	0xc17aa68d	-15.665662
65	0xc1d17168	-26.180374
66	0xc2023b7b	-32.558086
67	0xc041fa67	-3.0309083
68	0xc03f64b1	-2.9905207
69	0xc18ce54d	-17.611963
70	0xbf234408	-0.6377568
71	0xc03de593	-2.967137
72	0x41ece252	29.610508
73	0xc22f5257	-43.83041
74	0xc182a762	-16.33173
75	0xc0bf3dc9	-5.976292
76	0xc04bd956	-3.1851401
77	0xc0433179	-3.0498946
78	0xbfc532cc	-1.5406127
79	0xc04a077f	-3.1567075
80	0xc2191836	-38.273643
81	0xc1f7a3fa	-30.955067
82	0xc24ba6e2	-50.91297
83	0xc0428021	-3.0390704
84	0xc1a636d4	-20.776772
85	0xbfb9142e	-1.4459283
86	0xc03e8afa	-2.9772325
87	0xc14e8b61	-12.909028
88	0xc03f7860	-2.991722
89	0xc211a853	-36.41438
90	0xc15db5c1	-13.8568735
91	0xc08c5865	-4.3857903
92	0xc0432fbd	-3.0497887
93	0xc1dbcb4a	-27.474262
94	0xbfc10c3f	-1.5081862
95	0xc17beb4a	-15.744944
96	0xc10bfe35	-8.749562
97	0xc207a0ad	-33.90691
98	0xc17afd82	-15.686892
99	0xc04275fe	-3.0384517
100	0xc26d36b8	-59.303436
101	0xbfbba545	-1.4659811
102	0xc206a075	-33.656696
103	0xc0d8178d	-6.752875
104	0xc25f3e50	-55.810852
105	0xc2162293	-37.533764
106	0xc23b8864	-46.883194
107	0xc0467615	-3.1009572
108	0xc09f72a5	-4.9827447
109	0xc1c90bcd	-25.130762
110	0xc15d101c	-13.816433
111	0xc1c266c9	-24.300188
112	0xc04650a0	-3.098671
113	0x41bd418a	23.657001
114	0xc2369099	-45.64121
115	0xc03f84dd	-2.9924843
116	0xc21739b0	-37.806335
117	0xc03e5b76	-2.9743323
118	0xc2375109	-45.829136
119	0xc04288e0	-3.0396042
120	0xc23939ce	-46.30645
121	0xc23778c3	-45.86793
122	0xc047e2f3	-3.123227
123	0xbfb90fb1	-1.4457914
124	0xc25de153	-55.470043
125	0xc03dca0f	-2.9654577
126	0xc269103a	-58.265846
127	0x41a3de3f	20.483519

online.layer2.weight f4 [64, 128]
0	0xbf634159	-0.8877159
1	0xc22121b3	-40.28291
2	0x40473dd7	3.1131494
3	0xc218f2e2	-38.23719
4	0x4049746f	3.1477315
5	0xc17d1f35	-15.820119
6	0x404a2d98	3.1590328
7	0xbd6150b4	-0.055008605
8	0xbec41a11	-0.38301137
9	0xc1f6ef70	-30.866913
10	0x404571a8	3.085062
11	0x3d497e96	0.049192987
12	0x417bb5af	15.731856
13	0x402ace5c	2.6688452
14	0x3ee7eda4	0.45298493
15	0x40401f59	3.0019133
16	0x4165b005	14.3554735
17	0xbd00cfda	-0.031448223
18	0x416f50de	14.957243
19	0x4046d372	3.1066556
20	0x417bceb5	15.737966
21	0xc217a9ff	-37.91601
22	0x404956d3	3.1459243
23	0xbf054f87	-0.52074474
24	0x3ec1df62	0.3786574
25	0xbddd6fd8	-0.10812348
26	0xc18989e7	-17.192335
27	0x3ede12d7	0.4337375
28	0x4174f3c2	15.309511
29	0xc181c16e	-16.219448
30	0xc1822dc8	-16.272354
31	0xc11c40e4	-9.765842
32	0x417b9175	15.723012
33	0x4048be64	3.1366205
34	0xc17bbb0a	-15.733164
35	0x3ef28212	0.4736486
36	0x4043a527	3.056955
37	0x3f287d34	0.65816045
38	0x40469cc8	3.1033192
39	0x4045e4f4	3.0920992
40	0x4040bcb6	3.011518
41	0xc181bf15	-16.218302
42	0x41425c3d	12.147519
43	0xc115fa1f	-9.373565
44	0x4036b0e6	2.854547
45	0x416e3921	14.8889475
46	0x404a74d8	3.1633816
47	0xc0378414	-2.8674364
48	0xc160c719	-14.048608
49	0x3f0a1b58	0.53947973
50	0x40acf6f3	5.405145
51	0xc0bf569c	-5.9793224
52	0xc0a0dc88	-5.0269203
53	0xc14df23f	-12.871642
54	0x3f036000	0.5131836
55	0xc160d0cb	-14.050975
56	0x3f1d0504	0.6133578
57	0x3f1a27f9	0.60217243
58	0x3f2c79a0	0.67373085
59	0x404749db	3.1138828
60	0x40404f9d	3.0048592
61	0xc1777ad3	-15.467486
62	0xc188ec46	-17.115368
63	0x416670b3	14.402514
64	0x417b37c1	15.701112
65	0x3f052289	0.5200582
66	0xc2020c6a	-32.512123
67	0x404397ff	3.056152
68	0x40464f95	3.0986073
69	0xc14ef4a0	-12.934723
70	0xc0988b6d	-4.7670197
71	0x4046bc53	3.1052444
72	0xc1ad371d	-21.65191
73	0xc0125988	-2.2867146
74	0xc15f62ac	-13.96159
75	0x3f08601c	0.5327165
76	0x40437f2a	3.0546365
77	0x40497b9a	3.148169
78	0xbfbf570c	-1.494844
79	0x404243ec	3.0353956
80	0xc220faf5	-40.245075
81	0xc1830ac3	-16.380255
82	0xc183157f	-16.385496
83	0x404301ad	3.0469773
84	0x4172e220	15.180206
85	0xbfb72101	-1.4306947
86	0x4044e711	3.0766032
87	0xc115d23e	-9.363829
88	0x40453604	3.0814219
89	0xc182c379	-16.345446
90	0x3f09adb0	0.5378065
91	0xbba6bac7	-0.0050881836
92	0x4041d1a7	3.0284212
93	0xc020ef1a	-2.5145936
94	0xbfc63e47	-1.5487756
95	0x417b4edb	15.706752
96	0xbf82001c	-1.0156283
97	0xbfb6cb87	-1.4280862
98	0x417cc685	15.798467
99	0x40410b40	3.0163116
100	0xc17cc913	-15.79909
101	0xbfbc6c59	-1.4720565
102	0xc1c6e499	-24.86162
103	0xc0f59210	-7.67408
104	0xc17b2b6c	-15.698101
105	0xbfc341c0	-1.525444
106	0xc1f7da8a	-30.981709
107	0x404967d9	3.1469634
108	0xbdfc6b5d	-0.123251654
109	0xbcc1a0a0	-0.023636162
110	0x41721d2e	15.132124
111	0xc19e511c	-19.789604
112	0x4042e241	3.0450594
113	0x3f055341	0.5208016
114	0x3ee92735	0.45537725
115	0x40487743	3.1322792
116	0xbb34db6a	-0.0027596601
117	0x4048f993	3.1402328
118	0x3f1450a4	0.5793555
119	0x404746d9	3.1136992
120	0x3f1a17fc	0.6019285
121	0x3f08aed4	0.53391767
122	0x404371da	3.053824
123	0xbfacc9fb	-1.349914
124	0xc17d1c18	-15.819359
125	0x404885ea	3.1331735
126	0xc181e4c2	-16.236698
127	0xc17ae484	-15.68079
128	0xbd8daf6e	-0.06918226
129	0xc16863fb	-14.524409
130	0xbd7b9132	-0.061417766
131	0xc181e97b	-16.239004
132	0x3bc2d610	0.0059459284
133	0xbd9209f5	-0.071308054
134	0x3d97d10f	0.07412922
135	0xbd58a142	-0.052888162
136	0xbc991fa8	-0.018691853
137	0xbd8f6881	-0.070023544
138	0x3ce7b3ec	0.028284036
139	0x3d84a7e9	0.06477339
140	0xbd549d39	-0.05190775
141	0xbd8801c8	-0.06640965
142	0xbda9929f	-0.08279919
143	0x3d355892	0.04427392
144	0x3ce75c74	0.028242327
145	0xbd0ecda7	-0.034864094
146	0x3d171bb6	0.03689166
147	0x3c6bbf38	0.014388852
148	0xbd4e81ee	-0.05041688
149	0xc1821fe0	-16.265564
150	0x3ccdddbc	0.025130145
151	0x3d8225e9	0.06354887
152	0xbd872e72	-0.066006556
153	0xbd9517c0	-0.072799206
154	0x3d8f5ed5	0.0700051
155	0xbcec63e0	-0.028856218
156	0xbc1fc218	-0.009750865
157	0x3cb4d148	0.02207245
158	0xbd7935bc	-0.06084226
159	0x3d916007	0.07098394
160	0xbda5cfbc	-0.08096263
161	0xbd0e19b7	-0.034692492
162	0xbd318536	-0.04333993
163	0x3c6d7d08	0.014495142
164	0xbd7ff07e	-0.06248521
165	0xc169d967	-14.615577
166	0x3c28b078	0.01029598
167	0x3c16bff0	0.009201035
168	0xbb30c600	-0.0026973486
169	0xbaca2a80	-0.0015424043
170	0x3c35b1a0	0.011089712
171	0xbd46aad2	-0.04850275
172	0x3d9cdda9	0.07659466
173	0xbcb14064	-0.02163715
174	0x3c88a088	0.01667811
175	0x3ce18768	0.027530387
176	0xbd177148	-0.036973268
177	0xbcd55c8c	-0.026045106
178	0x3c642440	0.013924658
179	0xc16f946e	-14.973738
180	0x3d3849a6	0.04499211
181	0xbd8fcb42	-0.0702119
182	0xbbd397a0	-0.006457284
183	0x3d2a5eb6	0.04159423
184	0x3b5fdbe0	0.0034158155
185	0xbcc54864	-0.02408237
186	0x3b4b7c60	0.0031049475
187	0x3db5025b	0.0883834
188	0xbd4a6b42	-0.049418695
189	0x3d5ff81a	0.054679967
190	0xbda45c10	-0.08025372
191	0x3d42464a	0.047430314
192	0xbd891c9d	-0.06694911
193	0xbc97d6b8	-0.018535003
194	0x3c7b0aa0	0.015322357
195	0xbccef88c	-0.025265
196	0xbd53f9d9	-0.051751945
197	0xbdb12f72	-0.086516276
198	0xbd8023c8	-0.06256825
199	0x3d708b0a	0.058726348
200	0xbd2b71c1	-0.04185653
201	0xbcfbad84	-0.030722387
202	0x3d15424e	0.036440186
203	0x3d784876	0.06061598
204	0x3d46f406	0.048572563
205	0x3d9b6c9d	0.07589076
206	0xbdace1d6	-0.08441512
207	0xbc086a28	-0.008326091
208	0xbd36a446	-0.044590257
209	0xbd3bc6be	-0.045843832
210	0xbdad88d3	-0.08473363
211	0xbceb690e	-0.028736617
212	0x3d89daeb	0.067312084
213	0xbd9fc48c	-0.0780116
214	0x3da6b115	0.081392445
215	0xbc1c3280	-0.0095335245
216	0xbc2b39b0	-0.0104507655
217	0x3c9c9060	0.019111812
218	0x3d990697	0.0747196
219	0xc1826db4	-16.303566
220	0xbd84d4b4	-0.064858824
221	0xbd9c75f8	-0.07639688
222	0x3d9ee9b3	0.07759418
223	0xbd7ea8d3	-0.062172722
224	0x3c5e16c8	0.013555236
225	0x3d885c09	0.06658179
226	0xbd6cf056	-0.05784639
227	0xbd66251f	-0.056187745
228	0xbc1a80f0	-0.009430155
229	0x3aab3940	0.0013063326
230	0xc1f9f489	-31.244402
231	0xc16c8c61	-14.784272
232	0x3d668bee	0.05628579
233	0xbd886be9	-0.06661207
234	0x3da66af9	0.08125872
235	0xbbc18510	-0.005905755
236	0xbd1ced4a	-0.038312234
237	0xbd8589a2	-0.06520392
238	0xbd8061b8	-0.06268638
239	0x3d605ebe	0.054777853
240	0x3cf28cf4	0.029608227
241	0xbd23e382	-0.04001189
242	0xbc380bb8	-0.011233263
243	0xbce91014	-0.02845005
244	0x3c200a48	0.009768076
245	0x3d1d62b2	0.0384242
246	0x3d40773a	0.046988703
247	0x3d396de2	0.045270808
248	0x3b8ff510	0.0043932274
249	0xbd33d3ef	-0.043903288
250	0xbd4d7ce6	-0.05016794
251	0xbd68e14f	-0.056855496
252	0x3d86b8a7	0.065781884
253	0x3daa2159	0.08307142
254	0xbda1096f	-0.078631274
255	0xc16b2aec	-14.697979

online.layer2.bias f4 [64]
0	0xbf502b00	-0.8131561
1	0xc1f433a0	-30.525208
2	0xc021f930	-2.5308342
3	0xc1676a43	-14.463443
4	0x41c8bf3d	25.093378
5	0xc0467e6a	-3.1014657
6	0x402fc7bd	2.746566
7	0xc02e63c9	-2.7248404
8	0x40db862f	6.86013
9	0xc17bba91	-15.733048
10	0x414ba637	12.72808
11	0xc15ea94e	-13.916334
12	0xc15a4090	-13.640762
13	0xc0a74eca	-5.228368
14	0xc0445409	-3.067629
15	0xc1f45ba9	-30.544756
16	0xc2397908	-46.368195
17	0xc0ee4387	-7.445743
18	0xc233af43	-44.921154
19	0xc043cd83	-3.0594184
20	0xc1887b7a	-17.060291
21	0xc17b1ec4	-15.695011
22	0xc15c3d05	-13.764897
23	0xc15d0c8c	-13.815563
24	0xc0d07ed3	-6.5154815
25	0xc15f18e2	-13.943575
26	0xc03bd79c	-2.9350348
27	0xc1f2456c	-30.283897
28	0xc0cb1baf	-6.3471293
29	0xc19a4fc5	-19.28895
30	0xc04564ff	-3.0842893
31	0xc0bb33ed	-5.8500886
32	0xc0499664	-3.149804
33	0xc19196c1	-18.19861
34	0xc187873e	-16.941036
35	0xc035c754	-2.840291
36	0xc17c2c73	-15.760852
37	0xc17ce80c	-15.806652
38	0xc016eb3f	-2.3581083
39	0xc183a22b	-16.454184
40	0x41809c97	16.07646
41	0xc065c355	-3.5900471
42	0xbf841efa	-1.0321953
43	0xc17c431d	-15.766385
44	0xc17c5334	-15.770313
45	0xc188da12	-17.10648
46	0xc149a397	-12.602439
47	0xc136e0f2	-11.429918
48	0xc18966d4	-17.175209
49	0xc21f6762	-39.85096
50	0xc04252e3	-3.036309
51	0xc044e2f5	-3.0763524
52	0xc17d24d7	-15.821494
53	0xc180cdf5	-16.100565
54	0x41e6e805	28.86329
55	0xc1073b3d	-8.451962
56	0x415187b5	13.095632
57	0xc18de14e	-17.735012
58	0xc1998603	-19.190435
59	0xc0423aeb	-3.034846
60	0xc181faed	-16.247522
61	0xc1f7f8a5	-30.996408
62	0xc03baf13	-2.9325607
63	0xc182c6e8	-16.347122

online.output_layer.weight f4 [11, 64]
0	0x3fe23bf6	1.7674549
1	0xc182257f	-16.268309
2	0x412205e5	10.126439
3	0x3d4106c6	0.0471256
4	0x406e0f9a	3.7197022
5	0xbdce6a5c	-0.1007888
6	0x4148916d	12.535504
7	0xbdfc5716	-0.12321298
8	0xc043ad69	-3.057459
9	0xbd8fb152	-0.07016243
10	0x4120a400	10.040039
11	0xbd106384	-0.035251155
12	0x3da2c0e2	0.07946946
13	0xbfa54460	-1.2911491
14	0x3da02dfe	0.07821272
15	0x3ee6f213	0.45106563
16	0xbd043404	-0.03227617
17	0x40614b36	3.5202155
18	0xbdd33794	-0.10313335
19	0xbd49a238	-0.04922697
20	0x41732fdd	15.199185
21	0xbd478c44	-0.048717752
22	0xbbdaf020	-0.006681457
23	0xbd14a798	-0.036292642
24	0xc05edd04	-3.4822397
25	0xbd6005a0	-0.054692864
26	0x3a261400	0.00063353777
27	0x3db3f260	0.08786464
28	0x400197a6	2.024881
29	0x3dca6116	0.09881799
30	0xbda9c5a0	-0.08289647
31	0x40a79e3a	5.238065
32	0x3c3f2860	0.011667341
33	0xc16a39ca	-14.639109
34	0x3d781564	0.060567275
35	0xbd88269a	-0.06647988
36	0x3db977ea	0.09056075
37	0xbd7082a4	-0.05871834
38	0x41754cdb	15.331264
39	0x418a8ecb	17.319723
40	0x410bc5da	8.735804
41	0x3d54d138	0.05195734
42	0xc10cfc9b	-8.811671
43	0x3d600ce0	0.05469978
44	0x3d5f7784	0.05455734
45	0x3df89b6c	0.12139019
46	0x3d6718d8	0.056420177
47	0x418233f3	16.275366
48	0x3c2984a0	0.010346562
49	0xbcc7eae8	-0.024404004
50	0xbcbf3088	-0.023338571
51	0x3d6a5034	0.057205394
52	0x3c610810	0.013734832
53	0xc165b6a0	-14.357086
54	0x401e9cb6	2.4783149
55	0x40a87728	5.2645454
56	0x4138d0f0	11.55101
57	0x3be5ef00	0.0070170164
58	0x3daec826	0.08534269
59	0x3bcc5660	0.0062358826
60	0xc1655749	-14.33381
61	0x3be57a00	0.007003069
62	0x3ca478f8	0.020077214
63	0x3dd84e34	0.10561791
64	0xbd8fee9e	-0.070279345
65	0x3ddc076a	0.107436016
66	0xbda48442	-0.08033039
67	0x3d571244	0.052507654
68	0x3d2f6fcc	0.042831227
69	0x3cbcb1b8	0.023033962
70	0x3d50ed98	0.051007837
71	0xbd7caefc	-0.061690316
72	0x3d5820a4	0.052765504
73	0xbdfdbc3c	-0.123894185
74	0xbd107768	-0.035270125
75	0x3b8608c0	0.0040903986
76	0x3c4b4240	0.012405932
77	0x3d9bb4da	0.07602854
78	0xbd63a244	-0.05557467
79	0xbd949428	-0.07254821
80	0xbda998a2	-0.082810655
81	0x3d3ebeec	0.046568796
82	0xbd88c7da	-0.06678744
83	0xbd453064	-0.048141852
84	0xbc67c3d0	-0.014145806
85	0x3d5655b8	0.05232784
86	0xbd93488e	-0.07191573
87	0xbd385b8c	-0.04500918
88	0xbd90cf0a	-0.070707396
89	0x3d787888	0.060661823
90	0x3d312f30	0.043257892
91	0x3d2febec	0.042949602
92	0x3d17fcb0	0.037106216
93	0xbd5e8cf8	-0.054333657
94	0x3d68dfb0	0.05685395
95	0x3ae95700	0.0017802417
96	0x3d265b94	0.04061468
97	0xbddcb7e4	-0.10777262
98	0x3dab5008	0.08364874
99	0xbda7dc7e	-0.081963524
100	0xbcf477e8	-0.029842332
101	0x3d3f1674	0.046652272
102	0xbd81172e	-0.06303249
103	0xbbb2ef40	-0.0054606497
104	0xbc9205c8	-0.017825022
105	0x3c014400	0.007889748
106	0x3c15d970	0.009146079
107	0xbde7f714	-0.11326423
108	0x3dfa21ae	0.12213455
109	0x3d1e6b90	0.0386768
110	0x3d88232a	0.06647332
111	0x3d8600ca	0.06543119
112	0x3c463910	0.012098566
113	0x3d2259f0	0.039636552
114	0xbdd57e5e	-0.10424493
115	0xbda1375a	-0.078718856
116	0x3df817b0	0.12113893
117	0xbd601958	-0.05471167
118	0xbd9374ae	-0.07199989
119	0x3d1bbe34	0.03802319
120	0x3dc271fa	0.094943956
121	0x3dc7f416	0.097633526
122	0xbcc29f48	-0.023757592
123	0xbbd61820	-0.0065336376
124	0xbd1c75dc	-0.038198337
125	0xbcb36e28	-0.021903113
126	0xbddb7c68	-0.10717088
127	0x3d431b40	0.04763341
128	0xc10f30b9	-8.949395
129	0xbda67b3a	-0.08128972
130	0xc0dc18b7	-6.878017
131	0xbbc0eac0	-0.0058873594
132	0xc0ff9ba6	-7.98775
133	0xbb7f27c0	-0.0038933605
134	0xc0334954	-2.8013506
135	0xbd6f49a0	-0.058419824
136	0xc0e8dd53	-7.277017
137	0x3dfcecf2	0.12349881
138	0xc12ca5ce	-10.79048
139	0x3def5a9e	0.11687206
140	0xbdeeca86	-0.11659722
141	0xc0b99109	-5.7989545
142	0xbd26e930	-0.04074973
143	0xc0c53655	-6.1628823
144	0xc1440f23	-12.2536955
145	0xc114dbb1	-9.303636
146	0xc169b5c3	-14.606875
147	0x3dbff10e	0.093721494
148	0xbd81993e	-0.06328057
149	0x3c54fa60	0.012999147
150	0x3d3b4920	0.045724034
151	0xbc796300	-0.015221357
152	0xbdb4fa8e	-0.08836852
153	0xbc1c8cc0	-0.009555042
154	0x3d89556c	0.06705746
155	0xbdac77c8	-0.08421284
156	0xc0d58078	-6.671932
157	0xc181bf16	-16.218304
158	0x3ceedb58	0.029157326
159	0xc114360f	-9.263198
160	0x3d635220	0.055498242
161	0x3d1d4138	0.038392276
162	0xbd823f06	-0.06359677
163	0xbdf2a542	-0.11847927
164	0x3de74d16	0.11294
165	0x3d888b32	0.066671744
166	0xc0dd5fbf	-6.9179378
167	0x3cd48880	0.025943995
168	0xc11f1408	-9.94239
169	0xbddefe10	-0.10888302
170	0x3d96aed0	0.073575616
171	0x3c32ba80	0.010908723
172	0x3dc579a0	0.09642339
173	0x3a0a5c00	0.00052779913
174	0x3d831880	0.064011574
175	0xbd95d896	-0.07316701
176	0xbcf91138	-0.030403718
177	0xc13b9749	-11.724435
178	0x3d84ae8e	0.06478606
179	0x3dc5521e	0.09634803
180	0x3d122e84	0.035688892
181	0xbd9e2cd4	-0.07723394
182	0xc0f751f0	-7.728752
183	0xc0fb99d4	-7.862528
184	0xc106e97b	-8.432002
185	0x3caab1a0	0.020836651
186	0x3d66ec98	0.056377977
187	0xbc8d9a18	-0.017285392
188	0x3d9ba6ae	0.07600151
189	0xc16a38e5	-14.63889
190	0xbd7c7f58	-0.061644882
191	0x4181db20	16.231995
192	0xbde9bd04	-0.11413005
193	0xbc80e270	-0.015732974
194	0xbc1b2040	-0.009468138
195	0xbdccf566	-0.100077435
196	0xbd6ae084	-0.05734302
197	0xbd1d4ca0	-0.038403153
198	0xbd43bed8	-0.047789425
199	0x3c7ac7a0	0.015306383
200	0xbd47a0d0	-0.048737347
201	0x3dbd6b40	0.09248972
202	0xbde99e58	-0.11407155
203	0xbde66b60	-0.11250949
204	0xbc91c670	-0.017794818
205	0xbd6bcd58	-0.057568878
206	0xbc8123b0	-0.015764087
207	0x3d973c4e	0.07384549
208	0xbd001854	-0.0312732
209	0x3d574ef8	0.052565545
210	0x38af3800	8.355081e-05
211	0xbddb0614	-0.10694519
212	0x3c235e10	0.009971157
213	0x3dd05868	0.10173112
214	0xbd8a69da	-0.06758471
215	0xbc979640	-0.018504262
216	0x3d1790e8	0.037003428
217	0x3dd62fce	0.10458337
218	0x3d66f654	0.05638726
219	0x3d57b678	0.05266425
220	0xbdd9056c	-0.10596737
221	0xbd82ff10	-0.063963056
222	0xbd2898f4	-0.041161492
223	0x3d6232e0	0.0552243
224	0xbc42fae0	-0.011900634
225	0xbdc4a358	-0.09601468
226	0xbdc7d7ec	-0.09757981
227	0xbdafd5aa	-0.08585675
228	0xbd0a0764	-0.033698454
229	0x3d855b48	0.06511551
230	0x3c90ccc8	0.017675772
231	0x3c4c0e50	0.012454584
232	0x3d16d9ec	0.03682892
233	0x3dc68f92	0.096953526
234	0xbc50dc20	-0.012747794
235	0x3c671e90	0.014106408
236	0xbc027900	-0.007963419
237	0xbd488148	-0.048951417
238	0x3cacce30	0.021094412
239	0xbdde9276	-0.10867779
240	0x3d57f09c	0.052719697
241	0x3c6ac310	0.014328733
242	0xbd072044	-0.032989755
243	0xbd8d1912	-0.068895474
244	0x3d744f40	0.05964589
245	0xbda885fa	-0.08228679
246	0xbdcfb12a	-0.10141213
247	0xbd5e7a64	-0.05431594
248	0x3d92c66c	0.07166752
249	0x3db475a0	0.08811498
250	0x3cd7ded8	0.026351377
251	0xbdade734	-0.08491364
252	0xbde009c2	-0.10939361
253	0x3daacdc8	0.08340031
254	0xbd89b080	-0.06723118
255	0xbdd27c3a	-0.102776006

online.output_layer.bias f4 [11]
0	0xc57b2306	-4018.189
1	0xc57b22d7	-4018.1775
2	0xc57b22e8	-4018.1816
3	0xc57b230d	-4018.1907
4	0xc57b22f7	-4018.1853
5	0xc57b2334	-4018.2002
6	0xc56d1909	-3793.5647
7	0xc57b2309	-4018.1897
8	0xc57b22f1	-4018.1838
9	0xc57b2332	-4018.1997
10	0xc57b22e6	-4018.1812

target.layer1.weight f4 [128, 60]
0	0xbcdbb2c8	-0.026818648
1	0xbc9552f4	-0.018228032
2	0xbdfdff7a	-0.12402244
3	0xbdb24adc	-0.087056845
4	0xbca3ef44	-0.020011552
5	0xbd8a12e5	-0.06741885
6	0xbc11a820	-0.008890182
7	0xc0bd8413	-5.9223723
8	0x3f86a7d5	1.0519968
9	0x3d8278d8	0.06370705
10	0x3d84bd08	0.06481367
11	0x3d31e3b4	0.043430045
12	0xbced5474	-0.028970934
13	0xbe0115e0	-0.12606001
14	0xbdb9ad47	-0.09066253
15	0x3d5802f8	0.052737206
16	0xbb943e90	-0.0045240596
17	0x3c2a1fe0	0.010383576
18	0xbd41222e	-0.047151737
19	0xbd8fa45f	-0.07013773
20	0xbd1482b4	-0.03625746
21	0xbdc12600	-0.09431076
22	0x3dc235fa	0.094829515
23	0xbd6d1cb8	-0.057888716
24	0x3d285c4c	0.041103646
25	0x3d2fe1f0	0.04294008
26	0xbdb24c62	-0.08705975
27	0x3dfc5b42	0.123220935
28	0xbd2f4788	-0.042792827
29	0x3d264af0	0.04059881
30	0xbdd53d4c	-0.10412082
31	0xbcbad514	-0.022806682
32	0x3d8becaa	0.068322495
33	0x3dc07112	0.093965665
34	0xbdc32a04	-0.09529498
35	0xbd50db64	-0.050990477
36	0x3dcbb2be	0.09946202
37	0xbdaaec7b	-0.08345886
38	0xbd5769fe	-0.052591316
39	0xbcdd517c	-0.027016394
40	0x3d891296	0.06692998
41	0xbdd7bbc6	-0.10533862
42	0x3d92b46e	0.071633205
43	0x3e0281b3	0.12744789
44	0xbc6fd180	-0.014637351
45	0x3df06616	0.11738221
46	0x3d096acc	0.033549115
47	0xbda41238	-0.080112875
48	0x3c7470a0	0.01491943
49	0x3d8db454	0.069191605
50	0xbde1410d	-0.109987356
51	0x3bcb0340	0.006195456
52	0x3c9375a8	0.018000439
53	0xbdcf478d	-0.10121069
54	0xbd88f9cc	-0.0668827
55	0xbd225b80	-0.039638042
56	0x3a0df600	0.000541538
57	0x3dbdc746	0.09266524
58	0xbde9e3e3	-0.11420419
59	0xc08f2240	-4.472931
60	0x41457b0d	12.342542
61	0x3dd9a2b0	0.10626733
62	0xc15ea858	-13.9161
63	0x3dade262	0.08490445
64	0x3d4c89ac	0.04993598
65	0xbced933c	-0.02900087
66	0x3d2026f8	0.039099663
67	0xbfc0f8a0	-1.5075874
68	0x419056c2	18.042362
69	0x3b8484a0	0.0040441304
70	0x3a95fe80	0.0011443645
71	0xbda6f974	-0.08153048
72	0xbd61564c	-0.05501394
73	0xbdde27f4	-0.10847464
74	0x3dcb71ba	0.09933801
75	0x3ddeb468	0.108742535
76	0x3df0b862	0.11753918
77	0xbda82fb6	-0.08212225
78	0x3ddd6216	0.10809724
79	0x3c793630	0.015210673
80	0x3d2784d4	0.04089816
81	0xbd34931c	-0.044085607
82	0x3dd14de6	0.10219936
83	0xbd84b3f2	-0.06479634
84	0x3dc3d872	0.09562768
85	0x3c222540	0.009896576
86	0x3d0fd404	0.035114303
87	0xba580400	-0.0008240342
88	0x3cbd20b0	0.023086876
89	0xbda75d9f	-0.08172154
90	0x3b7d8940	0.0038686544
91	0x3d3531b8	0.04423687
92	0x3da3bee6	0.07995395
93	0x3dee6ff6	0.116424486
94	0x3df85422	0.12125422
95	0x3cf86028	0.030319288
96	0x3da547fc	0.080703706
97	0xbdfad934	-0.122484595
98	0xbd94339a	-0.07236405
99	0x3dee1da2	0.11626746
100	0xbde9d8a6	-0.114182755
101	0xbd3bb4b8	-0.045826644
102	0x3dd47730	0.10374296
103	0x3da276ea	0.07932837
104	0x3df6b13a	0.12045522
105	0x3d57e01c	0.05270396
106	0xbd58d9a2	-0.052941926
107	0xbcdb25f0	-0.026751488
108	0xbc7bee18	-0.01537659
109	0xbd5391ee	-0.05165284
110	0xbd6b22e8	-0.057406336
111	0xbd8c8251	-0.068607934
112	0x3dc4e470	0.096138835
113	0x3c845520	0.016153872
114	0xbd4c3634	-0.04985638
115	0x3d85099e	0.06495975
116	0xbc0e9228	-0.008701839
117	0xbce11390	-0.027475148
118	0x3ddcfd82	0.1079054
119	0xc20fbc3a	-35.933815
120	0x3dae5768	0.08512765
121	0x3e025e6f	0.12731336
122	0xbc6d6448	-0.014489241
123	0xbd8d4592	-0.06898035
124	0xbc1d5de0	-0.009604901
125	0xbd9a7786	-0.075423285
126	0x3df31574	0.11869326
127	0x3dc68002	0.09692384
128	0xc03d2cf4	-2.9558687
129	0x3e009a1f	0.12558793
130	0x3de2581e	0.11051963
131	0x3de4b588	0.11167437
132	0x3dfce9be	0.1234927
133	0xbc89f1dc	-0.01683896
134	0x3dee6792	0.11640848
135	0x3ddbf8c2	0.10740806
136	0x3c34e830	0.011041686
137	0xbd69f7c0	-0.05712104
138	0x3dcde740	0.10053873
139	0xbdb8c2b0	-0.09021509
140	0xbc0f7d00	-0.00875783
141	0xba9ab000	-0.001180172
142	0xbc246408	-0.010033615
143	0xbdcac8ba	-0.09901567
144	0x3d90c5fe	0.07069014
145	0x3dcfd53e	0.101480946
146	0x3dbfe82c	0.09370455
147	0xbdcd4b12	-0.10024084
148	0x3da951c4	0.08267549
149	0x3d8e27e6	0.06941204
150	0xbd60e734	-0.054907992
151	0x3d3e1c54	0.046413735
152	0x3dd83d90	0.10558617
153	0x3d1c2e8c	0.038130328
154	0xbde13b69	-0.1099766
155	0xbb07d780	-0.0020727813
156	0x3ded01d4	0.11572614
157	0xbdb0fe08	-0.086422026
158	0x3d4b00ac	0.049561188
159	0xbd633faa	-0.055480637
160	0xbdd17e5c	-0.10229179
161	0xbd105d64	-0.035245314
162	0xbd6461ee	-0.055757456
163	0x3df4e0c4	0.11956933
164	0x3de0a49a	0.10968895
165	0x3defedb4	0.1171526
166	0xbd3c964a	-0.046041764
167	0xbd1303d0	-0.035892308
168	0x3d8b3c9e	0.06798671
169	0xbdf5195b	-0.11967727
170	0x3d863a1e	0.06554054
171	0x3d95fba4	0.07323387
172	0x3c9c1e10	0.019057304
173	0x3dcfd94c	0.10148868
174	0xbdb450fe	-0.088045105
175	0xbdf2ab12	-0.11849035
176	0xbb0f6f00	-0.002188623
177	0xbdad2860	-0.084549665
178	0xbbeb5990	-0.0071823075
179	0xc03d9834	-2.9624147
180	0xc09bd7bf	-4.870086
181	0x3d1e5e20	0.038663983
182	0xc1177bbd	-9.46771
183	0xbd9e7da0	-0.07738805
184	0x3d38bed8	0.045103878
185	0x3d0568b4	0.032570556
186	0xbda81076	-0.08206265
187	0xc10f989c	-8.974758
188	0xc104d30d	-8.301526
189	0xbd53bb1c	-0.051692113
190	0x3de7810a	0.11303909
191	0x3dcae198	0.0990631
192	0xbd185f12	-0.03720004
193	0x3d7c3ce4	0.061581507
194	0xbcf99adc	-0.03046935
195	0x3d2b2390	0.041781962
196	0x3d906518	0.07050532
197	0x3d8d35dc	0.068950385
198	0x3d553308	0.05205062
199	0xbcb894a0	-0.022531807
200	0x3dc58dd8	0.09646195
201	0xbdce1bd2	-0.100639
202	0xbddde112	-0.108339444
203	0xbdda49cd	-0.10658608
204	0xbc4d6410	-0.012536064
205	0xbd7932cc	-0.06083946
206	0x3dba8ec6	0.09109263
207	0x3d5b9214	0.053606108
208	0x3bfd6ea0	0.007734135
209	0xbdbfc91e	-0.09364532
210	0xbd5575ba	-0.052114226
211	0x3ce72ef8	0.028220639
212	0x3d9202ec	0.071294636
213	0x3d679f5c	0.05654846
214	0xbdcea406	-0.10089879
215	0x3d7c7e40	0.06164384
216	0xbdec2924	-0.115312845
217	0x3da1ec2c	0.07906374
218	0xbe033e9e	-0.12816855
219	0xbcca05fc	-0.024661057
220	0xbaad2f00	-0.001321286
221	0xbdc2062a	-0.09473832
222	0xbce9062c	-0.028445326
223	0xbca2c588	-0.01986958
224	0xbc6dac20	-0.01450637
225	0x3b2b7080	0.0026159585
226	0x3cf27cc0	0.029600501
227	0xbd44f072	-0.04808087
228	0x3d57cb9c	0.05268441
229	0x3dfdc6f2	0.123914614
230	0xbd3668bc	-0.044533476
231	0x3ca2faf8	0.019895062
232	0xbd007d54	-0.031369522
233	0x3d951cb4	0.07280865
234	0xbd365ad4	-0.044520214
235	0x3e015091	0.1262839
236	0xbe01086c	-0.12600869
237	0x3c422630	0.011849925
238	0xbe008596	-0.12550959
239	0xc1a5fc33	-20.748144
240	0xbd461360	-0.04835832
241	0x3de51df4	0.11187354
242	0x3c518870	0.012788877
243	0x3c843ed8	0.016143247
244	0xbdd3b4e6	-0.10337238
245	0xbdbc05d9	-0.09180803
246	0xbda9ecc6	-0.08297114
247	0xbce81168	-0.028328612
248	0xc041714a	-3.0225396
249	0xbdfc1fd3	-0.123107575
250	0xbda94113	-0.08264365
251	0xbd449e1e	-0.048002355
252	0xbd4e9c8e	-0.05044227
253	0x3d4fd7d0	0.050742924
254	0x3caa89f8	0.020817742
255	0x3da0c97e	0.078509316

target.layer1.bias f4 [128]
0	0xc08c1ca3	-4.3784957
1	0xc21028d7	-36.039883
2	0xc045f8b2	-3.0933042
3	0xc1a56079	-20.672106
4	0xc04c2016	-3.1894584
5	0xc22169c9	-40.353306
6	0xc045002f	-3.0781362
7	0xc236ab7e	-45.667473
8	0xc176e1c8	-15.430122
9	0xc1f703d4	-30.87687
10	0xc03e107d	-2.9697564
11	0xbdc058bf	-0.09391927
12	0xc17cce01	-15.800294
13	0xc02b1f9d	-2.6738045
14	0x41a1552b	20.166586
15	0xc040d866	-3.013208
16	0xc1620967	-14.1272955
17	0xc216b123	-37.672985
18	0xc15f61c9	-13.961373
19	0xc03d7d1f	-2.9607618
20	0xc1768602	-15.407717
21	0xc1b92af6	-23.145977
22	0xc03d3057	-2.9560754
23	0xc1800802	-16.00391
24	0xc2381a63	-46.02577
25	0xc20f391f	-35.805782
26	0xc1c28372	-24.314182
27	0xc12b0118	-10.687767
28	0xc1a26450	-20.29898
29	0xc1bd29dd	-23.645441
30	0xc251d5b1	-52.458683
31	0xc0fdd3b0	-7.9320908
32	0xc17d531a	-15.832788
33	0xc03e05db	-2.9691074
34	0xc255de56	-53.467125
35	0x41b6b9b2	22.840672
36	0xc047361c	-3.1126776
37	0xc230e625	-44.22475
38	0xc04f8cda	-3.242972
39	0xc041aa0b	-3.0260036
40	0xc0475a3f	-3.1148832
41	0xc1be8dcf	-23.819242
42	0xc163dca9	-14.241372
43	0xc155c9fe	-13.3618145
44	0xc03bea0f	-2.9361608
45	0xc19628d5	-18.769938
46	0xc04b4a4b	-3.1764095
47	0xc00a205d	-2.1582253
48	0xc15e50a2	-13.894686
49	0x41b92494	23.14286
50	0xc17def05	-15.870854
51	0xc0dd5af5	-6.917353
52	0xc17d4926	-15.8303585
53	0xc21f6533	-39.848827
54	0x41c5f8a5	24.746408
55	0xc1a54c34	-20.662209
56	0xc2370aae	-45.76043
57	0x419f8678	19.940659
58	0xc12e5138	-10.894829
59	0xc045fcb8	-3.0935497
60	0xc041357d	-3.0188897
61	0xc17d241c	-15.821316
62	0xc1c1a271	-24.204317
63	0xc162ebf3	-14.182605
64	0xc17aa68d	-15.665662
65	0xc1d17168	-26.180374
66	0xc2023b7b	-32.558086
67	0xc041fa67	-3.0309083
68	0xc03f64b1	-2.9905207
69	0xc18ce54d	-17.611963
70	0xbf234408	-0.6377568
71	0xc03de593	-2.967137
72	0x41ece252	29.610508
73	0xc22f5257	-43.83041
74	0xc182a762	-16.33173
75	0xc0bf3dc9	-5.976292
76	0xc04bd956	-3.1851401
77	0xc0433179	-3.0498946
78	0xbfc532cc	-1.5406127
79	0xc04a077f	-3.1567075
80	0xc2191836	-38.273643
81	0xc1f7a3fa	-30.955067
82	0xc24ba6e2	-50.91297
83	0xc0428021	-3.0390704
84	0xc1a636d4	-20.776772
85	0xbfb9142e	-1.4459283
86	0xc03e8afa	-2.9772325
87	0xc14e8b61	-12.909028
88	0xc03f7860	-2.991722
89	0xc211a853	-36.41438
90	0xc15db5c1	-13.8568735
91	0xc08c5865	-4.3857903
92	0xc0432fbd	-3.0497887
93	0xc1dbcb4a	-27.474262
94	0xbfc10c3f	-1.5081862
95	0xc17beb4a	-15.744944
96	0xc10bfe35	-8.749562
97	0xc207a0ad	-33.90691
98	0xc17afd82	-15.686892
99	0xc04275fe	-3.0384517
100	0xc26d36b8	-59.303436
101	0xbfbba545	-1.4659811
102	0xc206a075	-33.656696
103	0xc0d8178d	-6.752875
104	0xc25f3e50	-55.810852
105	0xc2162293	-37.533764
106	0xc23b8864	-46.883194
107	0xc0467615	-3.1009572
108	0xc09f72a5	-4.9827447
109	0xc1c90bcd	-25.130762
110	0xc15d101c	-13.816433
111	0xc1c266c9	-24.300188
112	0xc04650a0	-3.098671
113	0x41bd418a	23.657001
114	0xc2369099	-45.64121
115	0xc03f84dd	-2.9924843
116	0xc21739b0	-37.806335
117	0xc03e5b76	-2.9743323
118	0xc2375109	-45.829136
119	0xc04288e0	-3.0396042
120	0xc23939ce	-46.30645
121	0xc23778c3	-45.86793
122	0xc047e2f3	-3.123227
123	0xbfb90fb1	-1.4457914
124	0xc25de153	-55.470043
125	0xc03dca0f	-2.9654577
126	0xc269103a	-58.265846
127	0x41a3de3f	20.483519

target.layer2.weight f4 [64, 128]
0	0xbf634159	-0.8877159
1	0xc22121b3	-40.28291
2	0x40473dd7	3.1131494
3	0xc218f2e2	-38.23719
4	0x4049746f	3.1477315
5	0xc17d1f35	-15.820119
6	0x404a2d98	3.1590328
7	0xbd6150b4	-0.055008605
8	0xbec41a11	-0.38301137
9	0xc1f6ef70	-30.866913
10	0x404571a8	3.085062
11	0x3d497e96	0.049192987
12	0x417bb5af	15.731856
13	0x402ace5c	2.6688452
14	0x3ee7eda4	0.45298493
15	0x40401f59	3.0019133
16	0x4165b005	14.3554735
17	0xbd00cfda	-0.031448223
18	0x416f50de	14.957243
19	0x4046d372	3.1066556
20	0x417bceb5	15.737966
21	0xc217a9ff	-37.91601
22	0x404956d3	3.1459243
23	0xbf054f87	-0.52074474
24	0x3ec1df62	0.3786574
25	0xbddd6fd8	-0.10812348
26	0xc18989e7	-17.192335
27	0x3ede12d7	0.4337375
28	0x4174f3c2	15.309511
29	0xc181c16e	-16.219448
30	0xc1822dc8	-16.272354
31	0xc11c40e4	-9.765842
32	0x417b9175	15.723012
33	0x4048be64	3.1366205
34	0xc17bbb0a	-15.733164
35	0x3ef28212	0.4736486
36	0x4043a527	3.056955
37	0x3f287d34	0.65816045
38	0x40469cc8	3.1033192
39	0x4045e4f4	3.0920992
40	0x4040bcb6	3.011518
41	0xc181bf15	-16.218302
42	0x41425c3d	12.147519
43	0xc115fa1f	-9.373565
44	0x4036b0e6	2.854547
45	0x416e3921	14.8889475
46	0x404a74d8	3.1633816
47	0xc0378414	-2.8674364
48	0xc160c719	-14.048608
49	0x3f0a1b58	0.53947973
50	0x40acf6f3	5.405145
51	0xc0bf569c	-5.9793224
52	0xc0a0dc88	-5.0269203
53	0xc14df23f	-12.871642
54	0x3f036000	0.5131836
55	0xc160d0cb	-14.050975
56	0x3f1d0504	0.6133578
57	0x3f1a27f9	0.60217243
58	0x3f2c79a0	0.67373085
59	0x404749db	3.1138828
60	0x40404f9d	3.0048592
61	0xc1777ad3	-15.467486
62	0xc188ec46	-17.115368
63	0x416670b3	14.402514
64	0x417b37c1	15.701112
65	0x3f052289	0.5200582
66	0xc2020c6a	-32.512123
67	0x404397ff	3.056152
68	0x40464f95	3.0986073
69	0xc14ef4a0	-12.934723
70	0xc0988b6d	-4.7670197
71	0x4046bc53	3.1052444
72	0xc1ad371d	-21.65191
73	0xc0125988	-2.2867146
74	0xc15f62ac	-13.96159
75	0x3f08601c	0.5327165
76	0x40437f2a	3.0546365
77	0x40497b9a	3.148169
78	0xbfbf570c	-1.494844
79	0x404243ec	3.0353956
80	0xc220faf5	-40.245075
81	0xc1830ac3	-16.380255
82	0xc183157f	-16.385496
83	0x404301ad	3.0469773
84	0x4172e220	15.180206
85	0xbfb72101	-1.4306947
86	0x4044e711	3.0766032
87	0xc115d23e	-9.363829
88	0x40453604	3.0814219
89	0xc182c379	-16.345446
90	0x3f09adb0	0.5378065
91	0xbba6bac7	-0.0050881836
92	0x4041d1a7	3.0284212
93	0xc020ef1a	-2.5145936
94	0xbfc63e47	-1.5487756
95	0x417b4edb	15.706752
96	0xbf82001c	-1.0156283
97	0xbfb6cb87	-1.4280862
98	0x417cc685	15.798467
99	0x40410b40	3.0163116
100	0xc17cc913	-15.79909
101	0xbfbc6c59	-1.4720565
102	0xc1c6e499	-24.86162
103	0xc0f59210	-7.67408
104	0xc17b2b6c	-15.698101
105	0xbfc341c0	-1.525444
106	0xc1f7da8a	-30.981709
107	0x404967d9	3.1469634
108	0xbdfc6b5d	-0.123251654
109	0xbcc1a0a0	-0.023636162
110	0x41721d2e	15.132124
111	0xc19e511c	-19.789604
112	0x4042e241	3.0450594
113	0x3f055341	0.5208016
114	0x3ee92735	0.45537725
115	0x40487743	3.1322792
116	0xbb34db6a	-0.0027596601
117	0x4048f993	3.1402328
118	0x3f1450a4	0.5793555
119	0x404746d9	3.1136992
120	0x3f1a17fc	0.6019285
121	0x3f08aed4	0.53391767
122	0x404371da	3.053824
123	0xbfacc9fb	-1.349914
124	0xc17d1c18	-15.819359
125	0x404885ea	3.1331735
126	0xc181e4c2	-16.236698
127	0xc17ae484	-15.68079
128	0xbd8daf6e	-0.06918226
129	0xc16863fb	-14.524409
130	0xbd7b9132	-0.061417766
131	0xc181e97b	-16.239004
132	0x3bc2d610	0.0059459284
133	0xbd9209f5	-0.071308054
134	0x3d97d10f	0.07412922
135	0xbd58a142	-0.052888162
136	0xbc991fa8	-0.018691853
137	0xbd8f6881	-0.070023544
138	0x3ce7b3ec	0.028284036
139	0x3d84a7e9	0.06477339
140	0xbd549d39	-0.05190775
141	0xbd8801c8	-0.06640965
142	0xbda9929f	-0.08279919
143	0x3d355892	0.04427392
144	0x3ce75c74	0.028242327
145	0xbd0ecda7	-0.034864094
146	0x3d171bb6	0.03689166
147	0x3c6bbf38	0.014388852
148	0xbd4e81ee	-0.05041688
149	0xc1821fe0	-16.265564
150	0x3ccdddbc	0.025130145
151	0x3d8225e9	0.06354887
152	0xbd872e72	-0.066006556
153	0xbd9517c0	-0.072799206
154	0x3d8f5ed5	0.0700051
155	0xbcec63e0	-0.028856218
156	0xbc1fc218	-0.009750865
157	0x3cb4d148	0.02207245
158	0xbd7935bc	-0.06084226
159	0x3d916007	0.07098394
160	0xbda5cfbc	-0.08096263
161	0xbd0e19b7	-0.034692492
162	0xbd318536	-0.04333993
163	0x3c6d7d08	0.014495142
164	0xbd7ff07e	-0.06248521
165	0xc169d967	-14.615577
166	0x3c28b078	0.01029598
167	0x3c16bff0	0.009201035
168	0xbb30c600	-0.0026973486
169	0xbaca2a80	-0.0015424043
170	0x3c35b1a0	0.011089712
171	0xbd46aad2	-0.04850275
172	0x3d9cdda9	0.07659466
173	0xbcb14064	-0.02163715
174	0x3c88a088	0.01667811
175	0x3ce18768	0.027530387
176	0xbd177148	-0.036973268
177	0xbcd55c8c	-0.026045106
178	0x3c642440	0.013924658
179	0xc16f946e	-14.973738
180	0x3d3849a6	0.04499211
181	0xbd8fcb42	-0.0702119
182	0xbbd397a0	-0.006457284
183	0x3d2a5eb6	0.04159423
184	0x3b5fdbe0	0.0034158155
185	0xbcc54864	-0.02408237
186	0x3b4b7c60	0.0031049475
187	0x3db5025b	0.0883834
188	0xbd4a6b42	-0.049418695
189	0x3d5ff81a	0.054679967
190	0xbda45c10	-0.08025372
191	0x3d42464a	0.047430314
192	0xbd891c9d	-0.06694911
193	0xbc97d6b8	-0.018535003
194	0x3c7b0aa0	0.015322357
195	0xbccef88c	-0.025265
196	0xbd53f9d9	-0.051751945
197	0xbdb12f72	-0.086516276
198	0xbd8023c8	-0.06256825
199	0x3d708b0a	0.058726348
200	0xbd2b71c1	-0.04185653
201	0xbcfbad84	-0.030722387
202	0x3d15424e	0.036440186
203	0x3d784876	0.06061598
204	0x3d46f406	0.048572563
205	0x3d9b6c9d	0.07589076
206	0xbdace1d6	-0.08441512
207	0xbc086a28	-0.008326091
208	0xbd36a446	-0.044590257
209	0xbd3bc6be	-0.045843832
210	0xbdad88d3	-0.08473363
211	0xbceb690e	-0.028736617
212	0x3d89daeb	0.067312084
213	0xbd9fc48c	-0.0780116
214	0x3da6b115	0.081392445
215	0xbc1c3280	-0.0095335245
216	0xbc2b39b0	-0.0104507655
217	0x3c9c9060	0.019111812
218	0x3d990697	0.0747196
219	0xc1826db4	-16.303566
220	0xbd84d4b4	-0.064858824
221	0xbd9c75f8	-0.07639688
222	0x3d9ee9b3	0.07759418
223	0xbd7ea8d3	-0.062172722
224	0x3c5e16c8	0.013555236
225	0x3d885c09	0.06658179
226	0xbd6cf056	-0.05784639
227	0xbd66251f	-0.056187745
228	0xbc1a80f0	-0.009430155
229	0x3aab3940	0.0013063326
230	0xc1f9f489	-31.244402
231	0xc16c8c61	-14.784272
232	0x3d668bee	0.05628579
233	0xbd886be9	-0.06661207
234	0x3da66af9	0.08125872
235	0xbbc18510	-0.005905755
236	0xbd1ced4a	-0.038312234
237	0xbd8589a2	-0.06520392
238	0xbd8061b8	-0.06268638
239	0x3d605ebe	0.054777853
240	0x3cf28cf4	0.029608227
241	0xbd23e382	-0.04001189
242	0xbc380bb8	-0.011233263
243	0xbce91014	-0.02845005
244	0x3c200a48	0.009768076
245	0x3d1d62b2	0.0384242
246	0x3d40773a	0.046988703
247	0x3d396de2	0.045270808
248	0x3b8ff510	0.0043932274
249	0xbd33d3ef	-0.043903288
250	0xbd4d7ce6	-0.05016794
251	0xbd68e14f	-0.056855496
252	0x3d86b8a7	0.065781884
253	0x3daa2159	0.08307142
254	0xbda1096f	-0.078631274
255	0xc16b2aec	-14.697979

target.layer2.bias f4 [64]
0	0xbf502b00	-0.8131561
1	0xc1f433a0	-30.525208
2	0xc021f930	-2.5308342
3	0xc1676a43	-14.463443
4	0x41c8bf3d	25.093378
5	0xc0467e6a	-3.1014657
6	0x402fc7bd	2.746566
7	0xc02e63c9	-2.7248404
8	0x40db862f	6.86013
9	0xc17bba91	-15.733048
10	0x414ba637	12.72808
11	0xc15ea94e	-13.916334
12	0xc15a4090	-13.640762
13	0xc0a74eca	-5.228368
14	0xc0445409	-3.067629
15	0xc1f45ba9	-30.544756
16	0xc2397908	-46.368195
17	0xc0ee4387	-7.445743
18	0xc233af43	-44.921154
19	0xc043cd83	-3.0594184
20	0xc1887b7a	-17.060291
21	0xc17b1ec4	-15.695011
22	0xc15c3d05	-13.764897
23	0xc15d0c8c	-13.815563
24	0xc0d07ed3	-6.5154815
25	0xc15f18e2	-13.943575
26	0xc03bd79c	-2.9350348
27	0xc1f2456c	-30.283897
28	0xc0cb1baf	-6.3471293
29	0xc19a4fc5	-19.28895
30	0xc04564ff	-3.0842893
31	0xc0bb33ed	-5.8500886
32	0xc0499664	-3.149804
33	0xc19196c1	-18.19861
34	0xc187873e	-16.941036
35	0xc035c754	-2.840291
36	0xc17c2c73	-15.760852
37	0xc17ce80c	-15.806652
38	0xc016eb3f	-2.3581083
39	0xc183a22b	-16.454184
40	0x41809c97	16.07646
41	0xc065c355	-3.5900471
42	0xbf841efa	-1.0321953
43	0xc17c431d	-15.766385
44	0xc17c5334	-15.770313
45	0xc188da12	-17.10648
46	0xc149a397	-12.602439
47	0xc136e0f2	-11.429918
48	0xc18966d4	-17.175209
49	0xc21f6762	-39.85096
50	0xc04252e3	-3.036309
51	0xc044e2f5	-3.0763524
52	0xc17d24d7	-15.821494
53	0xc180cdf5	-16.100565
54	0x41e6e805	28.86329
55	0xc1073b3d	-8.451962
56	0x415187b5	13.095632
57	0xc18de14e	-17.735012
58	0xc1998603	-19.190435
59	0xc0423aeb	-3.034846
60	0xc181faed	-16.247522
61	0xc1f7f8a5	-30.996408
62	0xc03baf13	-2.9325607
63	0xc182c6e8	-16.347122
